checkpoint/1.pt (torch, 10218 bytes, 10 tensors)

lstm.weight_ih_l0 f4 [32, 34]
000000 f0 d9 b4 bd 9a ac 9e bc 6e d6 ab 3d 60 db bd be
       -0.08830631 -0.019369412 0.083905086 -0.37081432
000010 5a d0 7a be ed 79 f4 be a0 32 8e be f4 85 17 3e
       -0.24493542 -0.47749272 -0.27773 0.14797193
000020 45 f8 2a 3d 05 73 05 3d 49 c6 e9 bd c8 a5 f0 3e
       0.041740675 0.032580394 -0.11414773 0.4700148
000030 71 fc f0 3e de b7 c0 bd 4b 5e c6 be 70 0d 2b 3e
       0.47067598 -0.0941007 -0.38743815 0.16704345
000040 b0 78 8f 3e f6 16 c9 bd dc 4b 41 be 1d b1 eb 3e
       0.28021765 -0.098188326 -0.18876594 0.46033564
000050 dd 61 a0 3e 73 40 13 3e 6d 1a 66 bd bc 84 88 be
       0.31324664 0.14380054 -0.056177545 -0.26663768
000060 61 79 c3 3e ff 5c 15 3d 5c 7a 46 be d5 84 f2 bd
       0.38178542 0.03646564 -0.19382614 -0.11841742
000070 21 f4 1b 3e 6d ae 82 3e 58 31 bb 3d bd 49 dc 3d
       0.15229847 0.255237 0.09140271 0.10756252
000080 b6 f7 15 3f b2 e5 8f be b9 29 d2 bb 52 bf a0 3e
       0.585811 -0.2810493 -0.006413665 0.31395966
000090 7d 55 8c be 60 01 e0 bd 8b 0d 6b 3e 68 09 32 bd
       -0.27408972 -0.10937762 0.22954385 -0.043466
0000a0 df 66 11 be af f9 15 3e cc 98 da bc 0d c0 5b 3e
       -0.14199398 0.14646028 -0.026684187 0.2145998
0000b0 a8 55 3c 3e 5e 78 70 3c f2 fb 71 bc b7 23 44 be
       0.1839205 0.014677135 -0.014769541 -0.19154249
0000c0 a9 e2 59 3e 2a 41 ab 3d 9a 94 6e 3d d3 91 91 3e
       0.2127787 0.083620384 0.058247186 0.28431568
0000d0 f8 53 4e be 7a d1 86 3e ab 97 49 bd b5 7b 19 3f
       -0.20149219 0.26331693 -0.049216907 0.59954387
0000e0 7d 45 35 3e 38 72 e0 3e 60 b4 82 3e 0b de 4c 3e
       0.17702289 0.43837142 0.2552824 0.20006578
0000f0 4a 39 ae 3e 3e c8 b1 3e a7 8c 0e be c2 a0 d3 be
       0.34028083 0.34723085 -0.13920842 -0.41333586
000100 5f ca b1 3e 3b d1 ad be a2 43 e5 bd 62 18 f2 bd
       0.3472471 -0.33948693 -0.111945406 -0.11821057
000110 c9 0e 00 be b8 a8 86 bd e2 f7 ce 3e a2 51 2a be
       -0.1250564 -0.06575149 0.40423495 -0.16632703
000120 e7 ab 86 bd 76 34 2e be 59 7c c1 3e 67 ae bd 3d
       -0.065757565 -0.170122 0.37790182 0.0926178
000130 20 1a 11 be 33 55 8a 3e fb 14 c4 3e 85 49 c4 3e
       -0.14170122 0.27018127 0.38297257 0.3833734
000140 09 cd 1e be 0c 7e 81 bc 7b 9c 96 3b 3b 40 3e 3e
       -0.15507902 -0.015807174 0.0045962906 0.1857919
000150 97 bd 08 bf 2f c2 7e 3e 2a 75 91 3e a2 be 07 be
       -0.5341429 0.24878763 0.28409702 -0.13256314
000160 72 6b 38 be a4 b6 e3 bd 8d d4 0c 3e 71 15 78 3e
       -0.18009737 -0.1111882 0.13752957 0.24226929
000170 d4 d9 eb bd 23 3d 87 3e a9 13 f1 3d 98 8a 00 3e
       -0.11516157 0.2641383 0.11771328 0.1255287
000180 e3 29 bb 3d 25 a5 dd 3e d4 b7 e0 be aa b9 ef bd
       0.09138849 0.43290058 -0.4389025 -0.117053345
000190 b4 eb 9c be 43 3b 1f 3e 5f b1 87 be aa a9 07 bf
       -0.30648577 0.1554995 -0.2650251 -0.5299326
0001a0 3f 82 c1 be f2 27 df be 07 2d 70 be 99 3f 02 be
       -0.37794682 -0.43585163 -0.23454677 -0.12719573
0001b0 33 cd ad bd 2a f9 86 3e 0a 2e 9c 3e 2a 0a 81 bd
       -0.08486404 0.26361972 0.30503875 -0.06300767
0001c0 83 92 ec 3d 7a 4d 74 be 50 56 ed bd 53 58 29 be
       0.115513824 -0.2385768 -0.115887284 -0.165376
0001d0 1d 00 39 be 65 e2 27 bf 39 1b 95 3e 63 79 a1 be
       -0.1806645 -0.65579826 0.29122332 -0.31537923
0001e0 dc 99 09 bf 1a 38 10 be f3 78 53 ba 24 4c 10 bf
       -0.53750396 -0.14083901 -0.0008067034 -0.5636618
0001f0 a8 9b 27 be 1b 16 05 3f 7d 22 aa 3e c8 86 ba 3e
       -0.16367972 0.51986855 0.33229437 0.36430955
000200 87 6f 9d bd 08 e1 fa 3c a4 82 3e 3e 03 9d e7 bc
       -0.07687288 0.030624881 0.18604523 -0.028273111
000210 69 68 2f 3e 42 f4 3a 3e fa 6f 8a 3e 6c b7 03 3e
       0.17129673 0.1825724 0.27038556 0.12862939
000220 b8 77 23 3e ff 20 ef bd a6 8e 88 be ed 2c 06 bf
       0.15963638 -0.116762154 -0.26671332 -0.524123
000230 e8 c1 2c 3e 46 4c ab be e6 64 ef be 51 52 d2 3d
       0.16870844 -0.3345663 -0.46756667 0.10269607
000240 05 99 a8 3d 9e 00 82 be 19 4b f8 3d b1 7b 9c bd
       0.08232311 -0.25391096 0.12123699 -0.0764078
000250 e5 47 1e be ca e9 b6 bd 91 dc da 3e 24 b2 22 bf
       -0.15457113 -0.089313105 0.42746404 -0.6355307
000260 60 9b 48 3e 7e 09 ae 3d 4d a0 9a 3e 54 b7 36 be
       0.19590521 0.08497904 0.30200425 -0.17843372
000270 19 0f 50 3e 27 59 14 3e b9 e7 44 3e 12 ca 8e bd
       0.2031826 0.14487134 0.1922902 -0.069721356
000280 48 b4 76 3e 74 ce 49 3e 7f 81 ed bd 78 0c c8 bc
       0.2409221 0.19707662 -0.11596965 -0.024420008
000290 ea fe 85 be 41 86 40 bd c8 a4 94 be d1 52 9e bd
       -0.26171046 -0.047003035 -0.29031968 -0.0773064
0002a0 5a 2e 70 3e 4b b4 e9 3e 95 3f 0c 3e 59 44 33 bd
       0.23455182 0.45645365 0.1369613 -0.043766353
0002b0 da d1 8d be 5b ad 0d bd 0c bf 56 be 32 a7 9b be
       -0.27699167 -0.034589153 -0.20971316 -0.30400997
0002c0 df f9 ee be 4b 91 93 be 9f 64 18 3e 66 f4 d5 be
       -0.46675012 -0.28821787 0.14882134 -0.41788024
0002d0 a5 f4 b8 bd 0c c9 1e be e4 44 cd be b2 55 91 3e
       -0.09031037 -0.15506381 -0.40091622 0.28385693
0002e0 db 33 a6 3e df b7 b7 3c dc 4d 63 bd 88 e0 a9 3e
       0.32461438 0.022426544 -0.055494174 0.33179116
0002f0 55 9f 6f 3d 1e 50 e4 be bd 9c 29 be a5 90 56 3e
       0.05850156 -0.44592375 -0.16563697 0.20953615
000300 1a 71 c2 be f1 9f 5f 3e aa 8f a5 3d f9 8f 4a 3e
       -0.37976915 0.21838357 0.08084042 0.19781484
000310 fd 09 53 3e c0 f7 9f bd 10 aa 84 3e 7d ec fa 3d
       0.20609279 -0.078109264 0.25910997 0.12252138
000320 87 26 5d 3d 43 f5 c9 bb e2 6d 52 3e b1 e3 1f be
       0.05399182 -0.0061632707 0.2054973 -0.15614201
000330 7c ba 98 3d c7 7a 98 3e f5 fc e4 be 86 e9 58 3e
       0.07457444 0.29781172 -0.4472424 0.21182832
000340 66 bb c4 bd 40 98 72 3e 21 4f 7d 3e 72 6a 98 be
       -0.09606056 0.23690891 0.24737217 -0.2976871
000350 5a 5e 0b 3e e4 7e b4 3d d5 e3 9a be 7d 9e ea 3e
       0.13610211 0.08813265 -0.30251947 0.45824042
000360 16 72 bf bc 7c 37 57 3e a6 81 1a bc 9a 18 0a be
       -0.02336983 0.2101726 -0.009430325 -0.13485947
000370 fe ad 6e be 4a bc 9f 3e 86 57 93 bd 43 48 97 be
       -0.2330856 0.3119834 -0.07194428 -0.2954732
000380 61 4f 94 3e a8 0f 22 3e 5e 0e a7 3d 83 f9 9c 3e
       0.2896681 0.15826285 0.08157037 0.30659112
000390 cb e0 c7 3e 84 0d ed bd 0c 9e 98 bd 7a e3 0b 3e
       0.3903869 -0.115748435 -0.0745202 0.13660994
0003a0 89 9a ac 3e 26 68 9e 3c a7 fb 55 bc b2 ec 47 be
       0.3371165 0.019336771 -0.013060487 -0.19523886
0003b0 90 2b 94 3e ce e6 cd be 61 6c 23 be 07 18 09 be
       0.28939486 -0.40215153 -0.15959312 -0.13388072
0003c0 61 ce 03 3e ef 27 84 3e d8 9a e9 3c f8 fe 4f 3e
       0.12871696 0.25811717 0.028516218 0.20312107
0003d0 0b 94 36 3e d8 40 55 3e c2 72 98 ba c8 75 87 be
       0.17829911 0.20825517 -0.001163088 -0.26457047
0003e0 cc cc 2f be 35 27 f8 3e f3 38 9f be 20 77 78 3e
       -0.17167968 0.48467413 -0.31098136 0.24264193
0003f0 c5 78 4b be 39 1c 5a 3c a6 6d 43 be d6 c4 66 be
       -0.19870289 0.013312393 -0.19084796 -0.22536024

lstm.weight_hh_l0 f4 [32, 8]
000000 b6 95 01 3f 5c 9a 7f 3d 94 07 36 bc fc 30 2d 3f
       0.50619066 0.062403068 -0.011110205 0.6765287
000010 47 ea c2 be c1 a2 ea 3e 2c 37 c7 3d 07 3a b3 3d
       -0.38069364 0.45827296 0.0972732 0.08751302
000020 2a b7 ca bc 46 68 d0 bd 7d c5 b7 be 53 e2 53 3e
       -0.024745543 -0.101761386 -0.3589286 0.20691805
000030 7d 60 15 bf f5 1e 96 3e 79 12 2a bf fd ee 62 3e
       -0.58350354 0.29320493 -0.6643444 0.2216148
000040 f8 c1 c2 bd 70 b6 79 3e 9f bb e0 bc 49 af b0 be
       -0.09509653 0.24386 -0.027433215 -0.34508732
000050 2d 6b 12 3f b3 d8 cd be b2 07 c2 37 52 e6 c9 3e
       0.5719479 -0.4020439 2.3130186e-05 0.39433533
000060 b9 84 6c be 71 60 09 3c 19 b1 df 3e 40 15 af 3d
       -0.23097505 0.00838481 0.43689802 0.08548975
000070 97 fd 60 be 64 9e 6e 3d cb b0 b8 be 07 6c df 3c
       -0.21971737 0.05825652 -0.36072382 0.027273191
000080 6d dc e3 be 18 8d f7 3d 3c d7 9f 3e 37 b3 83 3d
       -0.4450411 0.12087458 0.31218898 0.06430667
000090 4a 3b 27 3d a9 0e 6f be 48 62 d9 bd e2 78 7d be
       0.040828027 -0.23345436 -0.10614449 -0.24753144
0000a0 18 77 6a be 41 04 bb be 09 d7 a2 3e 3a c6 fd 3d
       -0.22896993 -0.36526683 0.31804684 0.12391324
0000b0 ab 6b 61 3e 90 8a 9d 3e 16 44 6d bc 4b 62 1e be
       0.22013728 0.30769777 -0.014481565 -0.15467183
0000c0 44 c1 f5 3e d7 40 99 be 58 a3 e7 bd 00 9b 75 3e
       0.47999012 -0.2993228 -0.11310452 0.23984909
0000d0 bf 50 0d be a1 a9 a2 be 78 e1 6a bd 1c 27 de bd
       -0.13800333 -0.31770042 -0.05734393 -0.10847303
0000e0 27 8d dd bc 6a 88 87 bd e9 8c ff 3e 56 85 15 3e
       -0.027044846 -0.06617816 0.49912193 0.14601645
0000f0 06 85 b9 3e 9b 54 94 be b7 58 d8 be 9a 2b ff 3d
       0.362343 -0.289708 -0.42255184 0.12459488
000100 81 74 1b 3c e1 37 46 bd 33 53 06 3e 16 ff 43 3f
       0.009488226 -0.048393134 0.13117675 0.76561105
000110 c8 de b0 be 19 59 43 be ac 1b ab be 22 73 06 3f
       -0.3454497 -0.19076957 -0.3341955 0.5251943
000120 cf 6a 48 be f8 fe 3c be 54 d1 5d be 9e 88 ae 3e
       -0.19571994 -0.18456638 -0.21661884 0.34088606
000130 93 5f a3 bd 4c a2 47 3e b4 7c 27 be a8 36 6a 3e
       -0.07977214 0.19495505 -0.16356164 0.22872412
000140 0d 02 cf 3d 4d 03 ad 3e cc c6 13 3e 1b c7 30 bc
       0.10107813 0.3379158 0.14431304 -0.010789658
000150 ec f8 10 3f c3 56 11 bf 33 76 c8 3e 27 bd d2 3e
       0.56629825 -0.5677301 0.3915268 0.41159937
000160 f4 2d 31 3e fe 98 e6 be 44 82 24 3e 87 2d 34 be
       0.17302686 -0.450386 0.16065317 -0.17595492
000170 72 7e 8d be 3b 63 73 be a8 db 22 be 86 68 3e 3d
       -0.27635533 -0.23768322 -0.15904105 0.0464864
000180 a2 2f 18 3e 19 b7 6c 3e e3 6d be 3e 87 1d af 3d
       0.1486192 0.23116721 0.37193212 0.08550554
000190 39 28 01 be bb 9b 65 3e 0a d2 39 3d 56 ab 23 bd
       -0.12613 0.22422688 0.045366324 -0.03995832
0001a0 55 35 b6 3d 9e d7 a4 be 8d 69 55 bd eb 53 a5 3e
       0.08896891 -0.32195753 -0.052102614 0.32290587
0001b0 be 59 01 bf 47 53 51 bd 12 3e 8e bd 4b ba ac 3e
       -0.5052756 -0.05110481 -0.06945433 0.3373588
0001c0 9b c9 3d 3e c3 98 bd 3d 35 a2 89 3e 5a 5a 0f 3f
       0.18533938 0.092576526 0.26881567 0.5599724
0001d0 14 1f 00 bf d7 66 1d bd a3 a9 d6 be c4 15 ab 3e
       -0.5004742 -0.038428154 -0.41926298 0.33415043
0001e0 93 ad a4 bd 28 80 65 be 05 90 0a 3e 7e bf ac 3e
       -0.08040919 -0.22412169 0.13531502 0.33739847
0001f0 0a 2d 03 3e 65 f7 1b be ee fe 72 3e 75 49 40 3d
       0.1281015 -0.15231092 0.2373006 0.046945054
000200 dc 9e 88 3e e9 21 1e 3e a2 91 c6 3e a6 1b c5 3e
       0.266837 0.15442623 0.38782984 0.38497657
000210 39 13 c3 3d 89 44 d3 bd 84 f1 47 be 29 05 5e 3e
       0.09525151 -0.103158064 -0.19525725 0.21681656
000220 b8 0e 09 bf 1e 68 82 3d 74 29 c6 bd 4a e3 30 bd
       -0.53538084 0.06367515 -0.09675875 -0.04318551
000230 30 93 75 3e c8 5e c5 be 1c 35 09 3e e3 7c 83 be
       0.23981929 -0.38548875 0.13399166 -0.25681219
000240 cc 30 d4 3d 3f a4 80 3e da 14 36 bc 09 6c 66 be
       0.1036087 0.2512531 -0.01111337 -0.2250215
000250 47 76 e0 3d 2a 1a e1 bd 99 65 f6 bd b7 f1 b4 3e
       0.109600596 -0.109913185 -0.12031097 0.35340664
000260 65 cb e8 bd f6 06 07 bf e6 4e a0 3e 95 cb cc 3e
       -0.113669194 -0.52744997 0.31310195 0.3999907
000270 15 a7 a4 be 4d 4f 0a 3d 5b a2 e1 bc 35 5d 0e be
       -0.32158723 0.033767033 -0.027543237 -0.13902743
000280 8f dd 1e 3e 13 a3 dc 3e 1e 4c 59 be 27 da 74 be
       0.15514205 0.43093166 -0.21220443 -0.23911344
000290 f3 54 ae 3e 7b 6e ed be b3 06 1e 3e 68 85 03 be
       0.34049186 -0.46373352 0.15432243 -0.12843859
0002a0 a4 00 e7 be 46 07 4a 3e 65 b8 2d be 94 7c f9 bd
       -0.45117676 0.19729337 -0.16964872 -0.121819645
0002b0 88 c5 47 be 1a d4 27 be d7 a5 14 3e 7f 48 03 bd
       -0.19508946 -0.16389504 0.14516388 -0.03205156
0002c0 19 e4 fd 3d 9a ee 43 3e 6d 51 de be 6f 2d 54 be
       0.12397022 0.19133988 -0.43421498 -0.20720457
0002d0 58 b6 aa bd c4 e8 dc 3e 28 a2 0f 3e 21 1d b0 be
       -0.083355606 0.43146336 0.14026701 -0.34397224
0002e0 ab 73 86 3e 46 ce 2b bd fc d4 8d bd a6 56 88 be
       0.26260123 -0.041944765 -0.06925389 -0.26628608
0002f0 a0 e7 bb be f7 3c 3d be a0 17 29 3e 7b a8 b1 3e
       -0.36700153 -0.18480287 0.16512918 0.34698853
000300 b1 48 90 3e 2b 37 f9 be 73 a2 7a bd 51 3b 5b 3f
       0.2818046 -0.48674902 -0.06119008 0.85637385
000310 74 a5 f4 be 7c bf 3c 3e 6a db 4a be e4 29 b6 3e
       -0.4778248 0.1843242 -0.19810262 0.35578835
000320 1a a0 2e be 11 aa 78 3d 93 54 1f bf 55 9c 77 3d
       -0.17053261 0.060709063 -0.62238425 0.060451824
000330 b9 3a 4d be 7b 2a f9 3d bb 2d a1 be a9 42 0d bf
       -0.20041932 0.12166306 -0.31480202 -0.5517984
000340 c8 c6 73 3e d3 f3 2b 3e d7 64 fe 3e d8 03 c6 bd
       0.23806298 0.1679223 0.4968631 -0.09668702
000350 3c 83 35 be f6 1a 19 be 0c 57 25 3e 45 f6 d2 3e
       -0.17725843 -0.14951691 0.16146487 0.41203514
000360 55 e2 63 3d 82 27 4d 3e 5f 89 bd 3c cb 9c 97 be
       0.05563577 0.20034602 0.023136793 -0.2961181
000370 22 53 14 3e 23 fe c4 3e 75 3b 37 3e 7d 39 b6 bc
       0.14484838 0.3847514 0.17893775 -0.02224421
000380 3d 78 23 be d7 c3 f1 3d 2a 78 0c 3f 28 e1 dd be
       -0.15963836 0.118049316 0.54870856 -0.43335843
000390 5a bf 87 be 1a 6f 66 3e 6c df 1a bf 2d 3a b7 bd
       -0.26513177 0.2250332 -0.60497165 -0.08946643
0003a0 cf 8b 0a 3d 2a b6 b6 be e0 47 e8 bd 0c 83 42 be
       0.033824738 -0.35685855 -0.11341834 -0.18995303
0003b0 a5 72 d1 be 54 3e 86 3d e0 46 ce bd 2a e9 8f be
       -0.4090778 0.06554857 -0.10072112 -0.28107578
0003c0 15 c1 29 be b2 80 13 3d 7f 9f c4 bc 0f d1 0f 3e
       -0.16577561 0.036011405 -0.024001835 0.14044593
0003d0 07 37 f9 bd 0f 9a ea 3d 32 5e 7a be 4d 7e 87 3c
       -0.12168699 0.114551656 -0.24449995 0.016539717
0003e0 5e 1f 9c 3e a7 d1 8b 3e 18 fe 25 3e b7 f1 a4 3e
       0.3049268 0.2730839 0.1621021 0.32215664
0003f0 d2 09 cf be 35 64 ce be 43 54 a4 bc ca b9 fc 3e
       -0.4043718 -0.40310827 -0.02005971 0.49360496

lstm.bias_ih_l0 f4 [32]
000000 0f 22 cd 3e a8 f0 b0 bd 67 90 67 3e db b2 9f 3d
       0.40065047 -0.086396515 0.22613679 0.07797786
000010 3a 6a 9c bd 9f 60 59 3e dd f8 94 3e e9 0c b6 be
       -0.076374486 0.21228264 0.29096118 -0.35556725
000020 34 fe 31 be ea 34 ad 3e b2 61 4b 3e 1a 0a 92 bd
       -0.17382127 0.33829433 0.19861487 -0.07130833
000030 94 87 b5 3e b9 fe 06 3d eb bf 64 be 74 3c 95 3d
       0.35455 0.032957766 -0.22338836 0.07286921
000040 c2 cb 14 bc 6b ec e9 bc 14 04 7a 3e 4e 58 28 be
       -0.009081783 -0.028555116 0.24415618 -0.16439936
000050 52 af 85 3e 39 c8 92 3e 97 bb e3 bd 49 51 d6 bd
       0.2611032 0.28668383 -0.11119764 -0.10464723
000060 48 8c d8 3e 6c a8 99 3e 38 a7 d2 3e d1 06 5c 3e
       0.42294526 0.30011308 0.41143203 0.21486975
000070 4e df d0 3e cd 02 95 3e ae 6e bc 3e 4d e5 7b bd
       0.40795368 0.291037 0.36803192 -0.061497975

lstm.bias_hh_l0 f4 [32]
000000 7e 55 8b 3e 78 a6 2a 3e b2 93 94 3e ef 32 96 3e
       0.27213663 0.16665065 0.29018933 0.29335734
000010 fd c5 13 3e f9 e1 09 be 2b 58 90 3e 02 fa a0 3d
       0.14430995 -0.13465108 0.28192267 0.07860185
000020 18 39 2e bd cd 2d d6 3d d0 bc 17 3f 92 b5 ba 3e
       -0.042534918 0.104579546 0.5927248 0.36466652
000030 69 df f5 3e 81 32 b5 bd b9 2d 58 be ff f8 81 be
       0.4802201 -0.088475235 -0.21111192 -0.2538528
000040 87 da 9a bd 08 ee ab 3d f1 47 87 be 9d f1 a9 bd
       -0.07561212 0.0839501 -0.26422074 -0.08298037
000050 27 cc 33 3e a7 8b b1 be 5b 8c e8 bd a3 68 35 be
       0.17558347 -0.3467686 -0.11354896 -0.17715697
000060 40 0a b5 3d 75 a9 25 3e c9 96 f1 3e e2 e2 7e 3e
       0.08839846 0.16177924 0.47185352 0.24891236
000070 bb 8b 1b be 10 21 61 3d e3 ba 6a be eb 77 b4 3d
       -0.15190022 0.05496317 -0.22922854 0.08811935

lstm.weight_ih_l1 f4 [32, 8]
000000 14 27 33 be 32 87 c8 bd a7 5d 60 3e a2 59 bd 3e
       -0.17495376 -0.097914115 0.21910726 0.36982447
000010 48 89 76 3d 44 8b d1 3e c9 c8 ea 3d 73 d6 ab 3d
       0.060189515 0.40926564 0.11464078 0.08390512
000020 c7 0f 1d 3d 33 55 ec 3e 4a ca ee bd f2 ad ca be
       0.038345125 0.46158752 -0.11659677 -0.39585835
000030 86 7e 05 3e 9e 5c d1 be fd 0d 18 bd 86 f2 23 be
       0.13036546 -0.40890974 -0.037122715 -0.16010484
000040 4f 67 89 3e d8 32 60 be 49 76 ab 3e 69 c0 ed 3e
       0.2683663 -0.21894395 0.33488682 0.4643586
000050 79 a9 2f 3e 01 c3 ba be e0 86 be 3c 57 a9 bc 3d
       0.17154492 -0.364769 0.023257673 0.092119865
000060 49 33 b0 be f2 48 a2 3d 3d ab 07 bf 59 65 67 be
       -0.34414127 0.079240695 -0.52995664 -0.22597255
000070 7c 91 af 3b eb 04 04 3f 8a fd ea bc f9 64 22 bf
       0.0053579193 0.51570004 -0.02868535 -0.6343532
000080 8f 6f b8 3d 27 b7 bb be 63 c7 ba bd 88 72 72 3d
       0.09005653 -0.36663172 -0.09120061 0.059191257
000090 a0 58 ba 3c ff bb 9e 3e 51 d5 8a 3d 10 2e a5 3e
       0.022747338 0.31002805 0.06778968 0.32261705
0000a0 51 d2 bd 3e bc fb 98 3e c0 b8 9f 3e df dc 09 bd
       0.3707452 0.29879558 0.3119564 -0.033657905
0000b0 9d 21 08 3f cf 31 d4 be 92 d3 fb 3d a6 87 f8 3d
       0.5317629 -0.4144425 0.12296213 0.12135248
0000c0 fe 20 14 3f bc fd fe 3e 41 ed 3e 3e 27 ff 8f bd
       0.5786284 0.4980296 0.18645193 -0.07031088
0000d0 72 83 06 3f 45 ab 3b be 5e 87 16 be 74 47 f9 3b
       0.5254432 -0.18327053 -0.14700076 0.007607395
0000e0 9c 6a bc 3d de 9b fe be af 97 b6 3e 2b 9c f8 3e
       0.092000216 -0.49728292 0.356626 0.48556647
0000f0 af 08 05 bf 51 a8 d2 3e 60 9d 00 be e0 93 b2 3e
       -0.51966375 0.4114404 -0.12560034 0.34878445
000100 fa e3 c2 3d 92 01 67 be 7b 41 8d bd d6 0d 34 3e
       0.09516139 -0.22559193 -0.06897255 0.17583403
000110 53 26 bb be e0 8d bd 3e 32 31 ed bd 0e be 91 3c
       -0.36552677 0.37022305 -0.11581649 0.01779082
000120 5a f1 34 3b b6 f1 08 be 6b 0c e9 3e a9 11 1a bf
       0.0027609677 -0.13373455 0.45517287 -0.601832
000130 e4 12 dd 3e 7e 3d 5e be 18 a7 f7 bd e7 96 f2 3d
       0.43178475 -0.21703145 -0.120924175 0.118451886
000140 6f 7e a3 3e 68 1a 19 be bb 6b 1b 3e 9e a1 48 3e
       0.319324 -0.1495148 0.15177815 0.19592902
000150 04 68 08 be 40 c8 50 3e f3 93 a9 be 5b a5 46 3e
       -0.13320929 0.2038889 -0.3312069 0.19399016
000160 6e 7c dd 3c a3 30 f5 be 1c 6f 69 be 28 a7 ef 3d
       0.027036872 -0.4788867 -0.22796291 0.117018044
000170 04 f6 fa be 8d 44 00 3f e3 f3 70 be 48 51 0d bc
       -0.4901582 0.501046 -0.23530535 -0.008625336
000180 e4 60 88 be e1 ca f8 be 70 b2 a9 3d 8c 0b c8 3e
       -0.26636422 -0.48592284 0.082859874 0.3907131
000190 98 61 c4 be 67 d9 ee 3d 7b 08 f0 be 8e fa 8d 3e
       -0.38355708 0.1166256 -0.4688147 0.2773022
0001a0 75 b1 83 bd c2 78 56 bd 7f 81 86 be 6d 37 21 bc
       -0.064303316 -0.052361257 -0.26270673 -0.009839875
0001b0 14 2d c9 3e 5c 10 b4 be 4c f8 23 3e 6e a5 d4 3d
       0.39292204 -0.3516873 0.16012686 0.10383116
0001c0 c2 7c 83 3e fd 94 10 3f 20 d1 8c 3e 60 d2 66 3e
       0.2568112 0.5647734 0.275033 0.22541189
0001d0 2e e0 62 3e 51 50 c0 bd c3 3f 52 3d dc 8b ac bd
       0.2215583 -0.09390319 0.05133034 -0.084251136
0001e0 46 0c 01 be 84 e5 bd be 0d 93 b1 be 39 1d 83 bb
       -0.12602338 -0.3708917 -0.34682503 -0.0040012863
0001f0 18 a0 77 be 60 98 f6 3e 9d 3f 03 bd 60 08 06 bd
       -0.24182165 0.48163128 -0.03204309 -0.03272283
000200 d2 ad 3a 3d 28 42 bf 3e 49 47 bc be ae 7c b9 be
       0.045575924 0.3735516 -0.36773136 -0.36227936
000210 b6 a9 e3 3d 33 86 06 be 06 ea e5 3e 27 4a 3a bd
       0.11116354 -0.1313713 0.44905108 -0.045480873
000220 6b 18 8a be 42 fb 15 3f 66 0d 29 bf a3 8a ec 3d
       -0.26971754 0.58586514 -0.6603607 0.1154988
000230 6e 6f 94 be 75 a0 11 be f0 aa 73 3e e1 a0 90 bd
       -0.28991264 -0.14221366 0.23795676 -0.07061935
000240 8b 87 2b be 28 1e ff 3e 3c f6 d8 3d fc 50 03 bf
       -0.16750924 0.49827695 0.105938405 -0.5129545
000250 91 aa 92 3e 4f 79 06 bc 28 d1 1f 3e ba 35 a8 bd
       0.28645757 -0.008207633 0.1560713 -0.082133725
000260 e2 9f 4a 3c 30 eb 12 bf 13 3e 0c 3e bd ed 82 3e
       0.012367221 -0.5739012 0.13695554 0.25572005
000270 c4 58 16 3d c2 ed 08 3f ab a0 09 be 54 ad 9f be
       0.036705747 0.5348779 -0.13440196 -0.31186926
000280 98 b6 b6 bd a2 2c d0 be d7 97 bb be 02 47 a4 3e
       -0.08921546 -0.40659052 -0.36639282 0.32085425
000290 32 e4 c7 be fe eb de 3e b4 b7 9e 3e 0e 9a f9 be
       -0.39041287 0.43539423 0.3099953 -0.48750347
0002a0 3d b1 fd be a7 79 76 be 84 38 ae 3e ad 4e 26 bf
       -0.49549285 -0.24069844 0.34027493 -0.649638
0002b0 2e 20 cc 3e f7 a6 fb bc 45 ef 4e 3e 47 2a a6 bd
       0.398683 -0.030719263 0.20208462 -0.081135325
0002c0 ac 33 c8 be df ff 03 3f ef 43 49 bf 02 be fd 3d
       -0.39101923 0.51562303 -0.78619283 0.12389757
0002d0 f9 d2 93 3c e7 2d 6c 3d e1 2d 89 3e b2 8a 40 3d
       0.018044936 0.057660963 0.26792815 0.04700727
0002e0 b6 ba 11 bf 12 4d 74 bd 32 0e c2 be dd d9 9a be
       -0.56925523 -0.059643812 -0.37901455 -0.30244341
0002f0 fb e2 7c be 1a 4b 05 3f 84 e9 0d be ac e2 ae bd
       -0.24695961 0.5206772 -0.1385861 -0.08539328
000300 36 5a ab be 26 17 f1 3c 2d 29 54 3e 6e 99 19 be
       -0.33467263 0.029429983 0.20718832 -0.14999935
000310 5e 5f a6 3d 97 fa 8b bd de ac 50 3e c9 c2 89 3c
       0.081236586 -0.068349056 0.20378444 0.016816514
000320 97 49 69 bc cf 01 07 3e a1 81 5a 3e d0 20 5f be
       -0.014238737 0.13184284 0.21338512 -0.2178986
000330 8e 07 ad 3e 8a 59 80 bd 5c e4 fb 3d d1 b2 89 3c
       0.33794826 -0.06267078 0.122994155 0.0168089
000340 04 38 9d 3e 98 62 f1 3d 80 fd 1f 3e 85 ff 7d bc
       0.307068 0.117863834 0.15624046 -0.015502815
000350 e2 8d 20 be a2 46 30 3e d4 fa 43 3d fc ae 95 3e
       -0.15679124 0.17214444 0.04784663 0.29235065
000360 67 8e dd be ba 83 7d 3e e1 01 c7 3d e5 30 5f bc
       -0.43272707 0.24757281 0.09717155 -0.013622497
000370 19 97 8a be 02 77 bf bc 01 4d f9 3d 26 bf ac bd
       -0.27068403 -0.023372177 0.121728905 -0.08434896
000380 52 8e d0 bd 91 59 66 bd 71 3b f2 be 91 ab bb bd
       -0.101833954 -0.05623776 -0.47310975 -0.09163583
000390 b5 40 b7 3d 7e d1 e4 3e 61 fe c6 3d cc cc dd be
       0.08947889 0.4469108 0.09716488 -0.4332031
0003a0 32 4f 45 3e 70 5b 1f 3e 80 3e 79 bd 33 00 95 3e
       0.19268492 0.15562224 -0.06085062 0.29101714
0003b0 04 da 19 3e 11 b0 67 3e c3 e0 bd 3c 5e a3 5b be
       0.15024573 0.22625758 0.023178464 -0.21449038
0003c0 fe 1d 13 3d 12 25 62 bd 74 21 e1 3d 5a 74 49 3e
       0.035917275 -0.055211134 0.10992709 0.19673291
0003d0 d6 99 b4 bc 41 19 9c be c3 e7 59 3e 0a 22 90 3e
       -0.022046011 -0.30488017 0.21279816 0.2815097
0003e0 14 51 04 be 14 33 a7 be cc ab 5e bd ae 05 db 3d
       -0.12921554 -0.32656157 -0.054363057 0.10694443
0003f0 24 60 ab be c3 d7 82 3e 8d e4 c1 be 9e 60 aa 3e
       -0.33471787 0.25555238 -0.37869683 0.33276838

lstm.weight_hh_l1 f4 [32, 8]
000000 60 e9 e1 be 28 21 91 3e 8f ef 55 be 01 1f 04 3f
       -0.44123363 0.2834561 -0.20892166 0.5160981
000010 d8 16 76 3e 2a 16 6c be 15 44 97 3e 1b 19 ef 3d
       0.24032152 -0.2305533 0.2954413 0.1167471
000020 ee 6e cb 3e 4f 6c c0 be 99 e8 2c be 92 b9 4b be
       0.3973307 -0.37582633 -0.16885604 -0.19895008
000030 0c 78 a5 be aa ca a8 be b0 86 a4 be a6 0e c0 be
       -0.3231815 -0.3296712 -0.32134008 -0.37511176
000040 7f 5e 40 bd 1c de 6a 3e b1 d6 0e be dc 8a 7f 3e
       -0.04696512 0.2293629 -0.13949086 0.24955314
000050 e9 1b 42 be 55 e9 17 be 6a 4e b1 be e0 2e ac be
       -0.1895596 -0.14835103 -0.34630138 -0.33629513
000060 03 af 6c bd 6e c9 2c bd a1 5d cc be 3e b8 6a 3e
       -0.05778409 -0.042184286 -0.39915183 0.22921845
000070 68 50 02 3f 16 b7 20 3e c2 1a 90 be 25 0b 0e 3f
       0.5090394 0.15694842 -0.28145415 0.55485755
000080 74 98 07 be 70 5d 60 be b9 68 ac be f2 25 bf 3e
       -0.1324175 -0.21910644 -0.33673647 0.37333637
000090 d8 89 02 3f 48 79 54 be 63 86 b0 be 57 62 87 bd
       0.5099158 -0.2074939 -0.3447753 -0.06610554
0000a0 d9 6e ba 3e b5 37 87 be 3d 47 39 be d5 18 f6 be
       0.36412695 -0.2640969 -0.18093581 -0.4806582
0000b0 ec 6c 21 be 5e 18 91 3d d7 95 84 be 60 26 3a be
       -0.15764207 0.07084726 -0.2589557 -0.18178701
0000c0 45 df d0 3e c5 eb 8b 3c c7 bc 05 bd 35 2f 6e bd
       0.4079534 0.017080197 -0.032650735 -0.05815049
0000d0 2b 00 57 be d5 5b d4 bc c0 2a f8 3d 8d 70 16 bf
       -0.20996158 -0.025922695 0.12117529 -0.5876549
0000e0 63 b7 09 bf 05 30 fd bd 85 c1 a1 bd 4d db 8d 3e
       -0.5379545 -0.123626746 -0.07898239 0.27706376
0000f0 7a cd 98 3e 0c 04 1f bf d7 ae 83 3d 27 10 a4 3e
       0.29844266 -0.6211555 0.064298324 0.32043573
000100 45 12 25 be 32 4f 8f be 98 0f 95 3d 8c 8f 00 3f
       -0.1612025 -0.2799011 0.07278365 0.50219035
000110 3d de f4 3e 88 e8 fa be d3 57 a9 3b b2 75 84 bd
       0.47825804 -0.49005532 0.00516794 -0.06467761
000120 b6 c0 c5 3e 1f a2 19 bd 69 3a e9 3e 61 68 90 3e
       0.3862359 -0.037508126 0.45552376 0.28204635
000130 ef 72 03 bf a6 d8 a8 3d 32 42 26 be bd e1 8e 3e
       -0.5134725 0.082444474 -0.16236189 0.279066
000140 1a 9f dd be 88 6e 5d 3e e7 5a 7d be 4d 72 50 be
       -0.43285447 0.21624196 -0.24741708 -0.20356102
000150 79 7e c4 3d ba 6b 16 bf 86 a6 a8 be 45 ea 22 3e
       0.09594435 -0.5875813 -0.32939547 0.15909679
000160 61 19 0f bf 24 da f8 3d 11 86 e0 be 81 cb 32 3b
       -0.558981 0.12150982 -0.43852285 0.0027281942
000170 aa d3 34 3d eb 1c f5 3b 55 b2 26 3e 42 c5 9e 3d
       0.04414717 0.007480254 0.16278966 0.07752468
000180 50 cf ce be cb e2 b7 3e 75 07 dc be b8 cb 04 be
       -0.40392542 0.35915217 -0.4297444 -0.12968338
000190 e4 94 da 3e 85 cd a0 be b5 5e 0e 3e d9 1d 1a bd
       0.4269172 -0.314068 0.13903315 -0.03762612
0001a0 48 46 4f be bb b3 05 3d e6 bf ce 3c 3e bc c2 3d
       -0.20241654 0.032642107 0.025237989 0.095085606
0001b0 01 0d 2e be b1 a3 02 3e 88 76 d6 bd c5 ae d5 bb
       -0.16997148 0.12757756 -0.10471827 -0.0065210783
0001c0 9f c5 39 3e 20 83 6e 3e b9 a1 0e 3d 8d 43 50 be
       0.18141793 0.23292208 0.0348222 -0.20338269
0001d0 1a 3f 89 bb bd c9 f3 3d a3 3f 0f 3b 23 dd 72 be
       -0.0041884305 0.11903713 0.0021857999 -0.2371717
0001e0 af 6b 0c 3d 5e b3 83 3d c8 f3 08 bd 91 00 e7 3e
       0.034282383 0.06430696 -0.033435613 0.4511762
0001f0 97 27 dc 3d 05 3b 53 3e 8c 93 8d 3e 5c 4d 09 3f
       0.10749739 0.20627983 0.27651632 0.53633666
000200 ef d9 3a be 28 04 53 bd 2c 48 8b 3e 0a 2d f6 be
       -0.18247198 -0.051517636 0.272035 -0.48081237
000210 94 a0 01 3e 89 d2 b7 3e 66 75 9a 3e 0b b8 0e 3e
       0.12658912 0.35902813 0.30167693 0.13937394
000220 95 2c 73 3e 81 ce 01 3f 6e 28 a5 3e ce 70 02 bd
       0.23747475 0.50705725 0.32257408 -0.03184586
000230 86 e4 4e 3e 05 9b cd be 9d bc ce 3e 6d 6d e4 3e
       0.20204362 -0.40157333 0.40378276 0.44614735
000240 e7 97 8f 3e 9a 9b 04 3e b3 0d 83 3d 35 f4 83 be
       0.2804558 0.12949982 0.06399097 -0.25772253
000250 82 74 3b 3d c8 b0 00 3d 5e db 58 3e 89 4a ad 3e
       0.045765407 0.03141859 0.21177432 0.33845928
000260 c9 15 5e bb 45 d6 f8 ba 7e 77 b9 bd 10 20 db bd
       -0.0033887497 -0.0018984756 -0.090559945 -0.10699475
000270 80 c3 28 3d b5 31 0d 3e e8 c4 a4 bc da 99 3a be
       0.04120207 0.13788493 -0.020113423 -0.18222752
000280 65 41 a0 be 8e 49 3a 3e 55 fb c9 3e be aa 84 3d
       -0.31299892 0.18192121 0.39449564 0.06477879
000290 e2 69 ab bd a2 bd 83 3e b9 2c fd 3d 30 7b f0 3e
       -0.08369805 0.25730616 0.12362046 0.46968985
0002a0 50 56 b1 be 48 8a 1c bd 97 5d e6 bb 9d 0b 72 3e
       -0.34636164 -0.038217813 -0.0070301997 0.23637243
0002b0 98 80 47 3e b4 a3 d6 3e 42 44 0c be 24 6d d9 3d
       0.19482648 0.4192177 -0.13697913 0.1061652
0002c0 f6 98 16 3f 6a c7 71 bc 96 c4 a4 bd 92 f3 91 be
       0.5882715 -0.014757017 -0.08045308 -0.28506142
0002d0 63 c8 62 bd 91 7b b2 be 39 8b ce 3e cf ea 84 3e
       -0.055366885 -0.348599 0.40340593 0.25960395
0002e0 7e a2 cd bd e4 71 98 be cf f4 a7 3c c6 aa 0c 3d
       -0.100407586 -0.29774392 0.020502476 0.03434255
0002f0 f1 61 bb bd 67 52 77 be 1a 23 69 be bd 2b 6b 3c
       -0.0914954 -0.24152528 -0.22767296 0.01435369
000300 d9 e6 2d bc 37 a8 92 3e 60 d4 70 be 53 9b 61 be
       -0.01061412 0.28643963 -0.23518515 -0.22031908
000310 4a 2b ae 3d 5d a0 8c bd fb 85 ca 3e 84 78 fd bc
       0.085043505 -0.06866524 0.39555344 -0.030941255
000320 fd b8 9c 3d b5 23 24 be 91 2b 0a be 78 b1 b1 bd
       0.07652471 -0.16029246 -0.13493182 -0.086764276
000330 6b fc 42 bd d0 2b 31 3e 81 b1 9c 3e 61 47 79 be
       -0.047604006 0.1730187 0.30604175 -0.24343635
000340 7f e8 5f 3e cc 26 01 bd b6 2d 03 3e 9d df 48 3e
       0.21866034 -0.03153114 0.12810406 0.19616552
000350 70 26 53 3c b7 27 3c be a9 9f 9d 3d 2b 68 08 be
       0.012887582 -0.18374525 0.076964684 -0.13320987
000360 44 85 2c bc b0 a5 29 bd b8 9f 72 3d 3c 0c 90 3e
       -0.01052982 -0.041417778 0.05923435 0.28134334
000370 1a 29 22 be 79 0f 12 3e f7 a4 96 be e5 a2 3e be
       -0.15835992 0.14263715 -0.29422733 -0.18616827
000380 f9 a6 0e be f5 1d 2b be 69 59 5e 3c 7d 72 61 3e
       -0.13930883 -0.16710646 0.013571122 0.2201633
000390 48 84 81 3d 68 dd f1 3d d4 b2 c9 bd 73 b3 f8 3d
       0.06324059 0.11809808 -0.09848562 0.12143602
0003a0 1b 41 84 be ff 51 a7 be 80 28 37 3e 96 1f 5b 3e
       -0.25830922 -0.32679746 0.17886543 0.21398768
0003b0 03 fe d3 3c 66 2b 28 3e 94 cf c8 bd e2 21 74 3e
       0.025877958 0.16422805 -0.098052174 0.2384105
0003c0 ad a8 b3 3d 1c 98 7e 3e 24 e9 af 3e 4d 5a a1 bb
       0.08772407 0.24862713 0.3435756 -0.004924095
0003d0 78 03 59 3e 51 26 99 bd 4a 55 4f 3e 7a 13 86 be
       0.2119273 -0.074780114 0.20247379 -0.26186734
0003e0 7e 9a 06 3e 2c 26 2c be df e4 ff bd 35 0d 83 3d
       0.13144872 -0.16811436 -0.124948256 0.063990034
0003f0 45 62 8b 3e 4c fe cf be da 15 a7 be d8 69 a7 3e
       0.2722341 -0.406237 -0.3263386 0.3269794

lstm.bias_ih_l1 f4 [32]
000000 f5 60 ee bd ff f4 5f 3e 9d e2 06 be 84 f7 19 bd
       -0.11639587 0.21870802 -0.13172384 -0.037589565
000010 e3 ba a1 3d 53 8e 8d bd 43 a5 8e 3c 4c 3d 42 3e
       0.07896974 -0.06911912 0.017412787 0.18968695
000020 e1 bb be 3e 7b 16 7f be 56 31 c0 3e 1d 47 ee 3d
       0.37252715 -0.2491092 0.3753764 0.116346575
000030 0d b2 72 bc 1d ba 83 3e 8b 4a ec 3e b8 ae 81 be
       -0.014812958 0.2572793 0.46150622 -0.25328612
000040 3a ea 02 bd 54 65 93 bd e8 cc b3 bd a6 fa 23 bd
       -0.031961657 -0.07197061 -0.08779317 -0.04003396
000050 5b 62 a1 bc fb d8 24 be c7 2d 2d 3e a8 d3 7e 3e
       -0.01970022 -0.16098396 0.16911994 0.24885428
000060 d7 9a 88 be d5 0e 75 be 7d 9f b2 3e ef 66 a1 bd
       -0.26680633 -0.23931439 0.34887305 -0.07880961
000070 a9 7a 39 3d 3f e9 6a 3d 2f f3 5a bd 0b 7a 9e 3e
       0.045282993 0.057351347 -0.053454574 0.30952486

lstm.bias_hh_l1 f4 [32]
000000 0b dc 75 3e b4 ad 62 3e 09 7b fa bd ee 58 84 be
       0.24009721 0.22136575 -0.12230498 -0.25849098
000010 83 53 70 3d 06 9a 4f bd 6a 45 e8 3e 98 4b ae bd
       0.058673393 -0.050683998 0.4536546 -0.08510512
000020 c6 66 c7 3d f6 ef 6a be 8f ee 42 be 83 53 a8 be
       0.09736399 -0.229431 -0.19036315 -0.32876214
000030 0e 48 84 3c 04 2f ef 3c 79 13 ff 3d e0 02 3d be
       0.01614764 0.029197223 0.12454886 -0.18458128
000040 08 dc 18 3e 1a 37 21 be ab 75 60 3d b0 57 a8 3d
       0.14927685 -0.15743676 0.054799717 0.0821985
000050 cc 94 5d bd b2 a1 7c be af 3e 91 be 81 09 9e be
       -0.054096982 -0.24671057 -0.28368136 -0.30866626
000060 97 5a b2 3e d8 aa 9c 3d 05 6d 25 3e f5 d7 91 3e
       0.3483474 0.07649773 0.16154869 0.28485075
000070 74 d3 98 be 57 1d be 3e 53 75 e7 bd 97 f9 ee 3e
       -0.29848826 0.3713176 -0.11301675 0.46674797

fc.weight f4 [4, 8]
000000 9d 2b b7 bb 69 68 62 be be e6 55 3e 75 52 1b 3e
       -0.005589916 -0.22110142 0.20888802 0.15168174
000010 8a 3f 46 be 87 2b db 3e b5 78 e2 bd 53 73 0a be
       -0.19360176 0.42806646 -0.11058179 -0.13520555
000020 8d 02 53 3e c4 aa c5 3e 33 a2 8a 3e 1b 8c bb bd
       0.20606442 0.38606846 0.27076873 -0.09157582
000030 09 20 47 be f6 b0 b3 be 05 df ad 3e 68 2e a8 bd
       -0.19445814 -0.35095948 0.33959213 -0.08211976
000040 d5 17 ab be 4f 23 cc 3d f3 28 54 be d6 d5 97 3e
       -0.3341662 0.09967672 -0.20718746 0.2965533
000050 cf b2 06 3e a6 e8 b7 3d b9 0e 9b bc ff 06 86 3e
       0.13154148 0.08979921 -0.018927919 0.26177213
000060 fe 53 90 be 1d 3e fa bd ee c0 c0 be 74 41 fd 3d
       -0.2818908 -0.122188784 -0.37647194 0.12366
000070 7b 46 54 be 97 2e 93 be d4 11 2a be 17 44 73 be
       -0.20730011 -0.28746483 -0.16608363 -0.23756443

fc.bias f4 [4]
000000 fc 48 c4 3d 79 93 b2 be dc 26 8c bd 90 27 35 bd
       0.09584233 -0.34878138 -0.06843349 -0.044227183
